{
    "model_name": "Yolo_Mine",
    "layers": "Yolo_Mine(\n  (backbone): BackBone(\n    (conv_0): Conv(\n      (conv): Conv2d(3, 64, kernel_size=(3, 3), stride=(2, 2), padding=(1, 1), bias=False)\n      (bn): BatchNorm2d(64, eps=1e-05, momentum=0.1, affine=True, track_running_stats=True)\n      (act): ReLU()\n    )\n    (conv_1): Conv(\n      (conv): Conv2d(64, 64, kernel_size=(3, 3), stride=(2, 2), padding=(1, 1), bias=False)\n      (bn): BatchNorm2d(64, eps=1e-05, momentum=0.1, affine=True, track_running_stats=True)\n      (act): ReLU()\n    )\n    (conv_3): Conv(\n      (conv): Conv2d(64, 128, kernel_size=(3, 3), stride=(2, 2), padding=(1, 1), bias=False)\n      (bn): BatchNorm2d(128, eps=1e-05, momentum=0.1, affine=True, track_running_stats=True)\n      (act): ReLU()\n    )\n    (conv_5): Conv(\n      (conv): Conv2d(128, 256, kernel_size=(3, 3), stride=(2, 2), padding=(1, 1), bias=False)\n      (bn): BatchNorm2d(256, eps=1e-05, momentum=0.1, affine=True, track_running_stats=True)\n      (act): ReLU()\n    )\n    (conv_7): Conv(\n      (conv): Conv2d(256, 1024, kernel_size=(3, 3), stride=(2, 2), padding=(1, 1), bias=False)\n      (bn): BatchNorm2d(1024, eps=1e-05, momentum=0.1, affine=True, track_running_stats=True)\n      (act): ReLU()\n    )\n    (c2f_2): C2f(\n      (conv1): Conv(\n        (conv): Conv2d(64, 64, kernel_size=(1, 1), stride=(1, 1), padding=(1, 1), bias=False)\n        (bn): BatchNorm2d(64, eps=1e-05, momentum=0.1, affine=True, track_running_stats=True)\n        (act): ReLU()\n      )\n      (necks): ModuleList(\n        (0): BottleNeck(\n          (conv1): Conv(\n            (conv): Conv2d(32, 32, kernel_size=(3, 3), stride=(1, 1), padding=(1, 1), bias=False)\n            (bn): BatchNorm2d(32, eps=1e-05, momentum=0.1, affine=True, track_running_stats=True)\n            (act): ReLU()\n          )\n          (conv2): Conv(\n            (conv): Conv2d(32, 32, kernel_size=(3, 3), stride=(1, 1), padding=(1, 1), bias=False)\n            (bn): BatchNorm2d(32, eps=1e-05, momentum=0.1, affine=True, track_running_stats=True)\n            (act): ReLU()\n          )\n        )\n      )\n      (conv2): Conv(\n        (conv): Conv2d(96, 64, kernel_size=(1, 1), stride=(1, 1), padding=(1, 1), bias=False)\n        (bn): BatchNorm2d(64, eps=1e-05, momentum=0.1, affine=True, track_running_stats=True)\n        (act): ReLU()\n      )\n    )\n    (c2f_4): C2f(\n      (conv1): Conv(\n        (conv): Conv2d(128, 128, kernel_size=(1, 1), stride=(1, 1), padding=(1, 1), bias=False)\n        (bn): BatchNorm2d(128, eps=1e-05, momentum=0.1, affine=True, track_running_stats=True)\n        (act): ReLU()\n      )\n      (necks): ModuleList(\n        (0-1): 2 x BottleNeck(\n          (conv1): Conv(\n            (conv): Conv2d(64, 64, kernel_size=(3, 3), stride=(1, 1), padding=(1, 1), bias=False)\n            (bn): BatchNorm2d(64, eps=1e-05, momentum=0.1, affine=True, track_running_stats=True)\n            (act): ReLU()\n          )\n          (conv2): Conv(\n            (conv): Conv2d(64, 64, kernel_size=(3, 3), stride=(1, 1), padding=(1, 1), bias=False)\n            (bn): BatchNorm2d(64, eps=1e-05, momentum=0.1, affine=True, track_running_stats=True)\n            (act): ReLU()\n          )\n        )\n      )\n      (conv2): Conv(\n        (conv): Conv2d(256, 128, kernel_size=(1, 1), stride=(1, 1), padding=(1, 1), bias=False)\n        (bn): BatchNorm2d(128, eps=1e-05, momentum=0.1, affine=True, track_running_stats=True)\n        (act): ReLU()\n      )\n    )\n    (c2f_6): C2f(\n      (conv1): Conv(\n        (conv): Conv2d(256, 256, kernel_size=(1, 1), stride=(1, 1), padding=(1, 1), bias=False)\n        (bn): BatchNorm2d(256, eps=1e-05, momentum=0.1, affine=True, track_running_stats=True)\n        (act): ReLU()\n      )\n      (necks): ModuleList(\n        (0-2): 3 x BottleNeck(\n          (conv1): Conv(\n            (conv): Conv2d(128, 128, kernel_size=(3, 3), stride=(1, 1), padding=(1, 1), bias=False)\n            (bn): BatchNorm2d(128, eps=1e-05, momentum=0.1, affine=True, track_running_stats=True)\n            (act): ReLU()\n          )\n          (conv2): Conv(\n            (conv): Conv2d(128, 128, kernel_size=(3, 3), stride=(1, 1), padding=(1, 1), bias=False)\n            (bn): BatchNorm2d(128, eps=1e-05, momentum=0.1, affine=True, track_running_stats=True)\n            (act): ReLU()\n          )\n        )\n      )\n      (conv2): Conv(\n        (conv): Conv2d(640, 256, kernel_size=(1, 1), stride=(1, 1), padding=(1, 1), bias=False)\n        (bn): BatchNorm2d(256, eps=1e-05, momentum=0.1, affine=True, track_running_stats=True)\n        (act): ReLU()\n      )\n    )\n    (c2f_8): C2f(\n      (conv1): Conv(\n        (conv): Conv2d(1024, 1024, kernel_size=(1, 1), stride=(1, 1), padding=(1, 1), bias=False)\n        (bn): BatchNorm2d(1024, eps=1e-05, momentum=0.1, affine=True, track_running_stats=True)\n        (act): ReLU()\n      )\n      (necks): ModuleList(\n        (0): BottleNeck(\n          (conv1): Conv(\n            (conv): Conv2d(512, 512, kernel_size=(3, 3), stride=(1, 1), padding=(1, 1), bias=False)\n            (bn): BatchNorm2d(512, eps=1e-05, momentum=0.1, affine=True, track_running_stats=True)\n            (act): ReLU()\n          )\n          (conv2): Conv(\n            (conv): Conv2d(512, 512, kernel_size=(3, 3), stride=(1, 1), padding=(1, 1), bias=False)\n            (bn): BatchNorm2d(512, eps=1e-05, momentum=0.1, affine=True, track_running_stats=True)\n            (act): ReLU()\n          )\n        )\n      )\n      (conv2): Conv(\n        (conv): Conv2d(1536, 1024, kernel_size=(1, 1), stride=(1, 1), padding=(1, 1), bias=False)\n        (bn): BatchNorm2d(1024, eps=1e-05, momentum=0.1, affine=True, track_running_stats=True)\n        (act): ReLU()\n      )\n    )\n    (sppf): SPPF(\n      (conv1): Conv(\n        (conv): Conv2d(1024, 512, kernel_size=(1, 1), stride=(1, 1), bias=False)\n        (bn): BatchNorm2d(512, eps=1e-05, momentum=0.1, affine=True, track_running_stats=True)\n        (act): ReLU()\n      )\n      (conv2): Conv(\n        (conv): Conv2d(2048, 1024, kernel_size=(1, 1), stride=(1, 1), bias=False)\n        (bn): BatchNorm2d(1024, eps=1e-05, momentum=0.1, affine=True, track_running_stats=True)\n        (act): ReLU()\n      )\n      (maxpool): MaxPool2d(kernel_size=5, stride=1, padding=2, dilation=1, ceil_mode=False)\n    )\n  )\n  (neck): Neck(\n    (c2f_1): C2f(\n      (conv1): Conv(\n        (conv): Conv2d(1280, 256, kernel_size=(1, 1), stride=(1, 1), padding=(1, 1), bias=False)\n        (bn): BatchNorm2d(256, eps=1e-05, momentum=0.1, affine=True, track_running_stats=True)\n        (act): ReLU()\n      )\n      (necks): ModuleList(\n        (0): BottleNeck(\n          (conv1): Conv(\n            (conv): Conv2d(128, 128, kernel_size=(3, 3), stride=(1, 1), padding=(1, 1), bias=False)\n            (bn): BatchNorm2d(128, eps=1e-05, momentum=0.1, affine=True, track_running_stats=True)\n            (act): ReLU()\n          )\n          (conv2): Conv(\n            (conv): Conv2d(128, 128, kernel_size=(3, 3), stride=(1, 1), padding=(1, 1), bias=False)\n            (bn): BatchNorm2d(128, eps=1e-05, momentum=0.1, affine=True, track_running_stats=True)\n            (act): ReLU()\n          )\n        )\n      )\n      (conv2): Conv(\n        (conv): Conv2d(384, 256, kernel_size=(1, 1), stride=(1, 1), padding=(1, 1), bias=False)\n        (bn): BatchNorm2d(256, eps=1e-05, momentum=0.1, affine=True, track_running_stats=True)\n        (act): ReLU()\n      )\n    )\n    (c2f_2): C2f(\n      (conv1): Conv(\n        (conv): Conv2d(384, 128, kernel_size=(1, 1), stride=(1, 1), padding=(1, 1), bias=False)\n        (bn): BatchNorm2d(128, eps=1e-05, momentum=0.1, affine=True, track_running_stats=True)\n        (act): ReLU()\n      )\n      (necks): ModuleList(\n        (0): BottleNeck(\n          (conv1): Conv(\n            (conv): Conv2d(64, 64, kernel_size=(3, 3), stride=(1, 1), padding=(1, 1), bias=False)\n            (bn): BatchNorm2d(64, eps=1e-05, momentum=0.1, affine=True, track_running_stats=True)\n            (act): ReLU()\n          )\n          (conv2): Conv(\n            (conv): Conv2d(64, 64, kernel_size=(3, 3), stride=(1, 1), padding=(1, 1), bias=False)\n            (bn): BatchNorm2d(64, eps=1e-05, momentum=0.1, affine=True, track_running_stats=True)\n            (act): ReLU()\n          )\n        )\n      )\n      (conv2): Conv(\n        (conv): Conv2d(192, 128, kernel_size=(1, 1), stride=(1, 1), padding=(1, 1), bias=False)\n        (bn): BatchNorm2d(128, eps=1e-05, momentum=0.1, affine=True, track_running_stats=True)\n        (act): ReLU()\n      )\n    )\n    (c2f_3): C2f(\n      (conv1): Conv(\n        (conv): Conv2d(384, 256, kernel_size=(1, 1), stride=(1, 1), padding=(1, 1), bias=False)\n        (bn): BatchNorm2d(256, eps=1e-05, momentum=0.1, affine=True, track_running_stats=True)\n        (act): ReLU()\n      )\n      (necks): ModuleList(\n        (0): BottleNeck(\n          (conv1): Conv(\n            (conv): Conv2d(128, 128, kernel_size=(3, 3), stride=(1, 1), padding=(1, 1), bias=False)\n            (bn): BatchNorm2d(128, eps=1e-05, momentum=0.1, affine=True, track_running_stats=True)\n            (act): ReLU()\n          )\n          (conv2): Conv(\n            (conv): Conv2d(128, 128, kernel_size=(3, 3), stride=(1, 1), padding=(1, 1), bias=False)\n            (bn): BatchNorm2d(128, eps=1e-05, momentum=0.1, affine=True, track_running_stats=True)\n            (act): ReLU()\n          )\n        )\n      )\n      (conv2): Conv(\n        (conv): Conv2d(384, 256, kernel_size=(1, 1), stride=(1, 1), padding=(1, 1), bias=False)\n        (bn): BatchNorm2d(256, eps=1e-05, momentum=0.1, affine=True, track_running_stats=True)\n        (act): ReLU()\n      )\n    )\n    (c2f_4): C2f(\n      (conv1): Conv(\n        (conv): Conv2d(1280, 512, kernel_size=(1, 1), stride=(1, 1), padding=(1, 1), bias=False)\n        (bn): BatchNorm2d(512, eps=1e-05, momentum=0.1, affine=True, track_running_stats=True)\n        (act): ReLU()\n      )\n      (necks): ModuleList(\n        (0): BottleNeck(\n          (conv1): Conv(\n            (conv): Conv2d(256, 256, kernel_size=(3, 3), stride=(1, 1), padding=(1, 1), bias=False)\n            (bn): BatchNorm2d(256, eps=1e-05, momentum=0.1, affine=True, track_running_stats=True)\n            (act): ReLU()\n          )\n          (conv2): Conv(\n            (conv): Conv2d(256, 256, kernel_size=(3, 3), stride=(1, 1), padding=(1, 1), bias=False)\n            (bn): BatchNorm2d(256, eps=1e-05, momentum=0.1, affine=True, track_running_stats=True)\n            (act): ReLU()\n          )\n        )\n      )\n      (conv2): Conv(\n        (conv): Conv2d(768, 512, kernel_size=(1, 1), stride=(1, 1), padding=(1, 1), bias=False)\n        (bn): BatchNorm2d(512, eps=1e-05, momentum=0.1, affine=True, track_running_stats=True)\n        (act): ReLU()\n      )\n    )\n    (down_1): Sequential(\n      (0): Conv(\n        (conv): Conv2d(128, 128, kernel_size=(3, 3), stride=(1, 1), padding=(1, 1), bias=False)\n        (bn): BatchNorm2d(128, eps=1e-05, momentum=0.1, affine=True, track_running_stats=True)\n        (act): ReLU()\n      )\n      (1): MaxPool2d(kernel_size=2, stride=2, padding=0, dilation=1, ceil_mode=False)\n    )\n    (down_2): Sequential(\n      (0): Conv(\n        (conv): Conv2d(256, 256, kernel_size=(3, 3), stride=(1, 1), padding=(1, 1), bias=False)\n        (bn): BatchNorm2d(256, eps=1e-05, momentum=0.1, affine=True, track_running_stats=True)\n        (act): ReLU()\n      )\n      (1): MaxPool2d(kernel_size=2, stride=2, padding=0, dilation=1, ceil_mode=False)\n    )\n  )\n  (head): Head(\n    (box): ModuleList(\n      (0): Sequential(\n        (0): Conv(\n          (conv): Conv2d(128, 64, kernel_size=(3, 3), stride=(1, 1), padding=(1, 1), bias=False)\n          (bn): BatchNorm2d(64, eps=1e-05, momentum=0.1, affine=True, track_running_stats=True)\n          (act): ReLU()\n        )\n        (1): Conv(\n          (conv): Conv2d(64, 64, kernel_size=(3, 3), stride=(1, 1), padding=(1, 1), bias=False)\n          (bn): BatchNorm2d(64, eps=1e-05, momentum=0.1, affine=True, track_running_stats=True)\n          (act): ReLU()\n        )\n        (2): Conv2d(64, 64, kernel_size=(1, 1), stride=(1, 1))\n      )\n      (1): Sequential(\n        (0): Conv(\n          (conv): Conv2d(256, 64, kernel_size=(3, 3), stride=(1, 1), padding=(1, 1), bias=False)\n          (bn): BatchNorm2d(64, eps=1e-05, momentum=0.1, affine=True, track_running_stats=True)\n          (act): ReLU()\n        )\n        (1): Conv(\n          (conv): Conv2d(64, 64, kernel_size=(3, 3), stride=(1, 1), padding=(1, 1), bias=False)\n          (bn): BatchNorm2d(64, eps=1e-05, momentum=0.1, affine=True, track_running_stats=True)\n          (act): ReLU()\n        )\n        (2): Conv2d(64, 64, kernel_size=(1, 1), stride=(1, 1))\n      )\n      (2): Sequential(\n        (0): Conv(\n          (conv): Conv2d(512, 64, kernel_size=(3, 3), stride=(1, 1), padding=(1, 1), bias=False)\n          (bn): BatchNorm2d(64, eps=1e-05, momentum=0.1, affine=True, track_running_stats=True)\n          (act): ReLU()\n        )\n        (1): Conv(\n          (conv): Conv2d(64, 64, kernel_size=(3, 3), stride=(1, 1), padding=(1, 1), bias=False)\n          (bn): BatchNorm2d(64, eps=1e-05, momentum=0.1, affine=True, track_running_stats=True)\n          (act): ReLU()\n        )\n        (2): Conv2d(64, 64, kernel_size=(1, 1), stride=(1, 1))\n      )\n    )\n    (cls): ModuleList(\n      (0): Sequential(\n        (0): Conv(\n          (conv): Conv2d(128, 80, kernel_size=(3, 3), stride=(1, 1), padding=(1, 1), bias=False)\n          (bn): BatchNorm2d(80, eps=1e-05, momentum=0.1, affine=True, track_running_stats=True)\n          (act): ReLU()\n        )\n        (1): Conv(\n          (conv): Conv2d(80, 80, kernel_size=(3, 3), stride=(1, 1), padding=(1, 1), bias=False)\n          (bn): BatchNorm2d(80, eps=1e-05, momentum=0.1, affine=True, track_running_stats=True)\n          (act): ReLU()\n        )\n        (2): Conv2d(80, 80, kernel_size=(1, 1), stride=(1, 1))\n      )\n      (1): Sequential(\n        (0): Conv(\n          (conv): Conv2d(256, 80, kernel_size=(3, 3), stride=(1, 1), padding=(1, 1), bias=False)\n          (bn): BatchNorm2d(80, eps=1e-05, momentum=0.1, affine=True, track_running_stats=True)\n          (act): ReLU()\n        )\n        (1): Conv(\n          (conv): Conv2d(80, 80, kernel_size=(3, 3), stride=(1, 1), padding=(1, 1), bias=False)\n          (bn): BatchNorm2d(80, eps=1e-05, momentum=0.1, affine=True, track_running_stats=True)\n          (act): ReLU()\n        )\n        (2): Conv2d(80, 80, kernel_size=(1, 1), stride=(1, 1))\n      )\n      (2): Sequential(\n        (0): Conv(\n          (conv): Conv2d(512, 80, kernel_size=(3, 3), stride=(1, 1), padding=(1, 1), bias=False)\n          (bn): BatchNorm2d(80, eps=1e-05, momentum=0.1, affine=True, track_running_stats=True)\n          (act): ReLU()\n        )\n        (1): Conv(\n          (conv): Conv2d(80, 80, kernel_size=(3, 3), stride=(1, 1), padding=(1, 1), bias=False)\n          (bn): BatchNorm2d(80, eps=1e-05, momentum=0.1, affine=True, track_running_stats=True)\n          (act): ReLU()\n        )\n        (2): Conv2d(80, 80, kernel_size=(1, 1), stride=(1, 1))\n      )\n    )\n    (dfl): DFL(\n      (conv): Conv2d(16, 1, kernel_size=(1, 1), stride=(1, 1))\n    )\n  )\n)",
    "total_params": 19894977,
    "trainable params": 19894977
}